Used GPU: True
where_clause:"WHERE (r.recording_id > 1)"
limit_clause:"ORDER BY RAND(1)"
epochs: 1000
batch_size: 24
max_accuracy: 0.90

    _________________________________________________________________
    Layer (type)                 Output Shape              Param #   
    =================================================================
    conv2d_1 (Conv2D)            (None, 478, 638, 32)      896       
    _________________________________________________________________
    max_pooling2d_1 (MaxPooling2 (None, 239, 319, 32)      0         
    _________________________________________________________________
    dropout_1 (Dropout)          (None, 239, 319, 32)      0         
    _________________________________________________________________
    conv2d_2 (Conv2D)            (None, 237, 317, 64)      18496     
    _________________________________________________________________
    max_pooling2d_2 (MaxPooling2 (None, 118, 158, 64)      0         
    _________________________________________________________________
    dropout_2 (Dropout)          (None, 118, 158, 64)      0         
    _________________________________________________________________
    conv2d_3 (Conv2D)            (None, 116, 156, 128)     73856     
    _________________________________________________________________
    max_pooling2d_3 (MaxPooling2 (None, 58, 78, 128)       0         
    _________________________________________________________________
    dropout_3 (Dropout)          (None, 58, 78, 128)       0         
    _________________________________________________________________
    flatten_1 (Flatten)          (None, 579072)            0         
    _________________________________________________________________
    dense_1 (Dense)              (None, 256)               148242688 
    _________________________________________________________________
    dropout_4 (Dropout)          (None, 256)               0         
    _________________________________________________________________
    dense_2 (Dense)              (None, 1)                 257       
    =================================================================
    Total params: 148,336,193
    Trainable params: 148,336,193
    Non-trainable params: 0
    _________________________________________________________________

Across all folds:
Average accuracy: 0.677177177 Stddev: 0.331603066
Average loss: 0.244254725 Stddev: 0.038277579
           E0     E1
    P0   8702   3286 
    P1      0      0
…
